scripts/rf_timeseries/rewards_currentTask_dangEnv_b1.npy (npy, 3584 bytes, 1 tensors)

array f8 [1, 216, 2]
00000000: d9ce f753 e385 41c0 0bf6 5d02 66f3 3240
00000010: 5839 b4c8 767e 33c0 f887 447d f043 3440
00000020: e7fb a9f1 d2cd 25c0 3887 51d0 25b9 3440
00000030: 7593 1804 560e 1bc0 9706 e716 c373 3440
00000040: 508d 976e 1283 14c0 d6d2 579c b98e 3440
00000050: 5eba 490c 022b 13c0 fc27 3f6f 59ee 3240
00000060: 5839 b4c8 769e 40c0 1029 61f3 fbe5 3340
00000070: 4e62 1058 39f4 30c0 a469 6963 24ab 3440
00000080: 9318 0456 0e2d 23c0 cae5 5b2b f321 3440
00000090: 022b 8716 d9ce 17c0 317e b3fa c43d 3440
000000a0: 39b4 c876 be9f 0cc0 8283 c96e df5b 3440
000000b0: 7d3f 355e ba49 0ac0 4656 a9cc 9bac 3340
000000c0: f2d2 4d62 1098 3fc0 c52c 5587 45f4 3240
000000d0: 7b14 ae47 e1fa 30c0 0141 813e 92f2 3440
000000e0: b6f3 fdd4 78e9 1fc0 913e 635e b5f6 3340
000000f0: 5c8f c2f5 285c 0fc0 7c06 e22f a6a2 3440
00000100: 508d 976e 1283 fcbf bdc0 0353 f690 3340
00000110: fca9 f1d2 4d62 f8bf e174 5922 42a9 3340
00000120: 3108 ac1c 5ae4 3cc0 2504 1118 48c6 3340
00000130: 1283 c0ca a145 2ec0 018d c9a2 ab29 3440
00000140: d34d 6210 5839 1dc0 da20 cb08 386b 3440
00000150: 48e1 7a14 ae47 07c0 c44c 45d4 c287 3440
00000160: 9a99 9999 9999 e9bf 7ef0 b386 4980 3440
00000170: 2fdd 2406 8195 d3bf be30 db4f 03c5 3340
00000180: 022b 8716 d98e 3cc0 9e77 937a 1d8d 3340
00000190: 7368 91ed 7c3f 29c0 f355 29ec fa6b 3240
000001a0: dbf9 7e6a bc74 17c0 2179 102c a0df 3340
000001b0: ae47 e17a 14ae fbbf de9d 9eb2 398e 3240
000001c0: 4c37 8941 60e5 e83f d110 f1d5 ed54 3340
000001d0: 6de7 fba9 f1d2 f93f f639 0cc9 20d9 3240
000001e0: 2506 8195 430b 3ec0 c923 6a8f 12dd 3240
000001f0: 48e1 7a14 ae47 29c0 0b15 b580 d89d 3340
00000200: c520 b072 6891 13c0 fc27 9b17 c6e9 3240
00000210: 7368 91ed 7c3f edbf 755d 7d0b 9284 3340
00000220: ee7c 3f35 5eba e93f 536d 418c d963 3340
00000230: 85eb 51b8 1e85 fb3f 005a 81b0 052f 3340
00000240: 54e3 a59b c420 36c0 ba24 c5d5 2f92 3240
00000250: 295c 8fc2 f528 16c0 ef61 161d 0d3a 3340
00000260: 1283 c0ca a145 0440 e7ab 8e5a 92ab 3340
00000270: d34d 6210 5839 1a40 c71d 6fd8 19aa 3340
00000280: 83c0 caa1 4536 2140 6fa5 d972 854d 3340
00000290: 713d 0ad7 a3f0 2240 3ff1 2603 7287 3340
000002a0: 9318 0456 0e6d 34c0 e399 8356 8f83 3340
000002b0: 0681 9543 8b6c 0fc0 180b 259c b745 3340
000002c0: 1904 560e 2db2 0f40 bae5 8ec8 f4c6 3340
000002d0: 8fc2 f528 5c0f 2040 98bf b916 8284 3340
000002e0: 0000 0000 0080 2340 4fe2 45d6 f726 3340
000002f0: a69b c420 b0f2 2540 2459 16a3 cb33 3340
00000300: 3789 4160 e590 31c0 e852 63de f8e9 3240
00000310: 8941 60e5 d022 03c0 31be afdd d608 3440
00000320: 7f6a bc74 9318 1940 af5a 7ef2 e682 3440
00000330: 7f6a bc74 9398 2340 8860 3c3d a403 3440
00000340: 643b df4f 8d97 2740 ea71 9dda 59fe 3340
00000350: b072 6891 edfc 2840 45ea 2233 91dd 3340
00000360: f4fd d478 e9a6 30c0 3e6b db39 cc4b 3340
00000370: 2731 08ac 1c5a f4bf 4f76 45cf c9f5 3340
00000380: 46b6 f3fd d478 1e40 2145 b50b ba66 3440
00000390: c3f5 285c 8fc2 2540 01e4 7135 da30 3440
000003a0: 5c8f c2f5 28dc 2940 10cc 1b53 5d0a 3440
000003b0: f2d2 4d62 10d8 2b40 d8e6 1c60 56f3 3340
000003c0: 8195 438b 6c27 32c0 a855 99cf 8f6f 3240
000003d0: 4e62 1058 39b4 d8bf 9c36 e88d c7e6 3340
000003e0: 0ad7 a370 3d8a 2040 95c0 4325 2a72 3440
000003f0: 17d9 cef7 5363 2740 a174 f2eb cd07 3440
00000400: b29d efa7 c64b 2b40 25e5 c772 77fc 3340
00000410: 1058 39b4 c8f6 2c40 3386 d4c4 2bf9 3340
00000420: fa7e 6abc 7493 30c0 df86 100f b672 3340
00000430: 986e 1283 c0ca d13f 6b90 b2e1 ffd1 3340
00000440: cff7 53e3 a59b 2140 38f3 5adf 625c 3440
00000450: 7368 91ed 7cbf 2840 6379 b0c1 6ad9 3340
00000460: 9318 0456 0ead 2c40 e7cb 287d 6d03 3440
00000470: 7593 1804 560e 2e40 e55d 67c1 18cc 3340
00000480: 986e 1283 c0ca 2cc0 9488 f189 f49d 3340
00000490: b4c8 76be 9f1a fb3f d89e 9976 8054 3440
000004a0: e3a5 9bc4 2030 2440 c622 7f79 f27b 3440
000004b0: f2d2 4d62 1058 2b40 9dcf 78c5 d19e 3440
000004c0: f2d2 4d62 10d8 2e40 2b2e da9e ae00 3540
000004d0: 2b87 16d9 ce37 3040 4a08 c57d 6f9a 3440
000004e0: 6abc 7493 1804 2bc0 f5b9 1f6d 4509 3440
000004f0: 6210 5839 b4c8 0640 2589 9c1d b230 3440
00000500: 79e9 2631 082c 2740 63a1 d2bf c48e 3440
00000510: b4c8 76be 9f1a 2e40 bf37 3013 86d3 3440
00000520: 508d 976e 12c3 3040 74a0 8805 009b 3440
00000530: ae47 e17a 14ae 3140 f5bf 269b f275 3440
00000540: bc74 9318 04d6 26c0 5dcb 38a8 666b 3240
00000550: 4c37 8941 60e5 1140 9d3c 7608 421a 3440
00000560: 8b6c e7fb a9f1 2940 d475 fba9 8448 3440
00000570: aaf1 d24d 6290 3040 5593 0ac1 a38e 3440
00000580: 2731 08ac 1c1a 3240 d838 2026 0cad 3440
00000590: 91ed 7c3f 351e 3340 2e60 2445 cea3 3440
000005a0: 77be 9f1a 2f5d 26c0 22da 7c3c 304f 3440
000005b0: 5eba 490c 022b 1640 7a00 93e4 2531 3440
000005c0: 79e9 2631 082c 2c40 da0b 272e f4a8 3440
000005d0: 2506 8195 438b 3140 5d0d c743 e3a2 3440
000005e0: 713d 0ad7 a330 3340 2354 b540 05df 3440
000005f0: 3789 4160 e550 3440 a8c7 3531 1779 3440
00000600: 1058 39b4 c876 22c0 1f42 bf37 0263 3340
00000610: ec51 b81e 85eb 1840 4e5f 0c3f bfde 3340
00000620: 6891 ed7c 3fb5 2c40 50dc 3435 7ecf 3340
00000630: a01a 2fdd 24c6 3140 e710 09c9 0f1e 3440
00000640: 6891 ed7c 3ff5 3340 d30d e5d0 1613 3440
00000650: b29d efa7 c60b 3540 88af bb71 7e3a 3440
00000660: 3108 ac1c 5a64 21c0 4ab1 55aa b136 3440
00000670: e7fb a9f1 d24d 1b40 198f f7e6 b0ff 3340
00000680: 0ad7 a370 3d0a 2e40 6889 abca 3e04 3440
00000690: ec51 b81e 852b 3240 77b8 076c dbc1 3340
000006a0: bc74 9318 0496 3440 545f eb36 5afe 3340
000006b0: 0000 0000 00c0 3540 7164 9330 2b31 3440
000006c0: cff7 53e3 a59b 23c0 c72e c06c a52c 3340
000006d0: d7a3 703d 0ad7 1640 4618 aee1 076c 3340
000006e0: 3f35 5eba 490c 2c40 1c48 6cb6 80d9 3340
000006f0: 2731 08ac 1c9a 3140 5189 36c0 8ad3 3340
00000700: 3bdf 4f8d 97ae 3340 4a93 fc34 03cd 3340
00000710: 7368 91ed 7cbf 3440 5387 08f4 3c0f 3440
00000720: f853 e3a5 9bc4 20c0 b12e 2618 eaec 3240
00000730: cdcc cccc cccc 1d40 1351 214f 25b6 3340
00000740: f0a7 c64b 3709 2f40 7e22 417f aaaa 3340
00000750: 8716 d9ce f7d3 3240 83d2 21b4 fbaa 3340
00000760: e3a5 9bc4 20f0 3440 e28d acff 3ffb 3340
00000770: 83c0 caa1 45f6 3540 c15f 39b9 212e 3440
00000780: 9cc4 20b0 7268 1bc0 9ede 64b5 d2e2 3340
00000790: 3333 3333 33b3 2140 516b c3d8 43b3 3240
000007a0: 0456 0e2d b29d 3040 cd9b b116 b930 3340
000007b0: 8fc2 f528 5ccf 3440 b717 152b d464 3340
000007c0: 508d 976e 1283 3640 ccf9 cd2f 7f11 3340
000007d0: d578 e926 31c8 3740 f474 057e d81c 3340
000007e0: 3789 4160 e5d0 19c0 54d4 8895 888c 3240
000007f0: 643b df4f 8d97 2340 b4cf fb27 a3c1 3240
-35.046 18.95077528757069 -19.494 20.265388325911744 -10.902 20.72323324194369 -6.764 20.452195578959245
-5.128 20.557519694749168 -4.792 18.93105216304683 -33.238 19.898375712605286 -16.954 20.66852399180938
-9.588 20.132616720138493 -5.952 20.2412869156089 -3.578 20.358878063390428 -3.286 19.674252311079066
-31.594 18.95418592290368 -16.98 20.947544008785375 -7.978 19.96370496676406 -3.92 20.635348313028302
-1.782 19.566258610168678 -1.524 19.661165377464275 -28.892 19.774537567285865 -15.136 20.162775205809343
-7.306 20.418823766319157 -2.91 20.53031660739795 -0.8 20.501121920519374 -0.306 19.769581786168366
-28.558 19.55123106098437 -12.624 18.42179752358602 -5.864 19.873537782689827 -1.73 18.555567897534154
0.778 19.33175408492463 1.614 18.848156514630283 -30.044 18.863564456379923 -12.64 19.616584819993516
-4.892 18.91317889726632 -0.914 19.517853468043047 0.804 19.390038267110253 1.72 19.1836805644798
-22.128 18.571042404776314 -5.54 19.226762598003855 2.534 19.67020193083945 6.556 19.664456870201118
8.606 19.302817514549528 9.47 19.529083439834036 -20.426 19.51390591347616 -3.928 19.272332915347846
3.962 19.77717259873109 8.03 19.517609997128233 9.75 19.15221919256356 10.974 19.202326004940133
-17.566 18.913953685044277 -2.392 20.03452859440421 6.274 20.511336475227548 9.798 20.014224841347215
11.796 19.99355856269714 12.494 19.865496822380255 -16.652 19.29608499152095 -1.272 19.960110620935946
7.618 20.401276332621936 10.88 20.19082960157903 12.93 20.04048652104035 13.922 19.950536734634483
-18.154 18.4357881306984 -0.386 19.901482457344727 8.27 20.445955590287287 11.694 20.030485865300424
13.648 19.986197637369646 14.482 19.973324109922213 -16.576 19.448090497527 0.278 19.820310693831214
8.804 20.360883674339874 12.374 19.84928522642566 14.338 20.013389418087083 15.028 19.797252738700895
-14.396 19.617012616603986 1.694 20.33008519411564 10.094 20.48416861871626 13.672 20.620388357157584
15.422 21.00266449762982 16.218 20.60326372204171 -13.508 20.03621561073847 2.848 20.190217829434136
11.586 20.557689656184618 15.052 20.826264571449197 16.762 20.605469079834123 17.68 20.460733124695214
-11.418 18.41953517328817 4.474 20.102570084444427 12.972 20.283274291888873 16.564 20.557186188775933
18.102 20.67596662794753 19.118 20.639866181736743 -11.182 20.309329777223077 5.542 20.19198444928086
14.086 20.659975895436084 17.544 20.63628028497384 19.19 20.871173900861447 20.316 20.473010135297642
-9.232 19.386752590364377 6.23 19.870105686684205 14.354 19.810519528775615 17.774 20.117428364480386
19.958 20.07456689445628 21.046 20.22849188644571 -8.696 20.213648458405522 6.826 19.998793063582614
15.02 20.01658312499913 18.17 19.757254363903908 20.586 19.993564064468345 21.75 20.192065273270092
-9.804 19.174399182242976 5.71 19.42199526310312 14.024 19.84962024825664 17.602 19.826335919680165
19.682 19.800830184615997 20.748 20.059523822862797 -8.384 18.92544699604213 7.45 19.711506791719398
15.518 19.666664079095874 18.828 19.667903192765618 20.938 19.981445293071268 21.962 20.18020208025678
-6.852 19.886027657629363 8.85 18.700254008970038 16.616 19.19032422863147 20.81 19.393862431191987
22.512 19.068346965586713 23.782 19.112678409893263 -6.454 18.54895910826265 9.796 18.75639581582773
